model.pth (torch, 50344 bytes, 8 tensors)

net.0.weight f4 [128, 6]
00000000: 66ce 9f3e a97d ad3e 9cdf c3bd d102 c03e
00000010: dc30 b7bd 37b7 a83d 2687 4bbe e682 753e
00000020: 4b43 b83e 6358 99be 9fae b53e 857b 9c3d
00000030: 9b6d 9a3e 0977 623d b293 493e f518 6cbd
00000040: 0a22 a13e f229 773d 2229 43be 5b1e d53d
00000050: f69b 40be 171a 44bd 00cb 29be eea8 8a3e
00000060: 23ff a4be 41b9 40be 6717 ecbd 165c 7bbe
00000070: 78d3 1d3d a272 cebe 4cc5 bc3e fb8e b1be
00000080: 205f a13e 4d24 8b3d d4bd 07be 742a 813e
00000090: 404e 823d 0fe2 a83e 81cd 363d 30d7 03be
000000a0: f8a4 e03d 29bb e2bd 1cf0 2f3e d89e ba3e
000000b0: d8a7 713e 23c2 36be c652 713e 5099 953d
000000c0: 6d4c 543e 23cd 7ebe ede9 cebe 3e84 21be
000000d0: 5553 a0be f982 ab3e 23d2 f03d 1129 2d3e
000000e0: 3936 043e dcb6 e8bb 4f95 a33e 8783 94be
000000f0: f192 d23c acaa 8ebe c8e7 003e bdf7 0fbe
00000100: 9f18 003e 5831 aebd b15c ad3e dec6 77be
00000110: 6c52 79be 4656 79be 1d01 bc3e 7c50 0b3e
00000120: f621 c93e 7880 acbe 3753 cfbe 3988 a3be
00000130: 8a9b 8cbe 5553 293e 39b1 153e b3ae ad3e
00000140: c3e3 57be 587e 8ebe 64ce 5d3e e7f9 28be
00000150: e4b8 7d3e c167 c6bd 4424 6f3e 7f67 a2be
00000160: 8af7 52be a9e7 fe3d 9bc1 b03d 4a2b d5bd
00000170: 432f 793e 8a18 8e3e f893 97be 7e2e 5fbe
00000180: 0065 bf3e f90f 0dbe 4a34 14be ea3f cabe
00000190: 1467 6fbe e6db d03d 8eb7 5cbd 1aba 97be
000001a0: 4ee5 1c3c a3c7 8ebe a455 b1be d433 66be
000001b0: 88f0 b6be ce17 85be fef0 d03e bdea 9d3d
000001c0: 34d3 003e ddf3 c2be ea47 89be 2e26 0bbe
000001d0: a0bd 823d 85ec b7be f71f 34be 6b45 7abe
000001e0: 324a 943a 6e8e 1bbe 2dc0 e7bc eaa3 8dbe
000001f0: f478 8fbe 92e3 73be 9e18 0fbe 5cfa a4be
00000200: 7542 af3e 2eef a5bd c3d7 b33e 7741 023e
00000210: 0a00 b1be c0a6 903e e90b e6bd 7f3f 20be
00000220: 0281 adbe 75cd cfbe 0837 ef3d a8a3 b6bd
00000230: 4dc1 223e a389 abbe 532f 9b3e 286f 99be
00000240: f35e 90bd 68a2 ae3d 30d1 573e 1dbf a83e
00000250: 5c69 be3e 34bd a5be c86a d23d 03d0 33be
00000260: ff3e 37bd a673 9cbe f963 be3e a269 99be
00000270: e46c 5f3e 03eb 123e bcd8 073e df03 62be
00000280: edfd bd3e 4fbb b73d 281c 573d e033 b8be
00000290: b37d 2f3e b9dc 7abd 6484 3fbe 2a8a b33e
000002a0: e467 ba3d 8e4b 67be e996 53be 7ab6 9fbc
000002b0: bd6b 693e 61a6 d5bd d686 6ebe 2f28 0fbe
000002c0: eb27 9cbe c016 153e d5ca a13e 66c8 c4be
000002d0: dd2e c23d 93f5 573e ae9b 973d 67e0 14be
000002e0: 2b32 5a3e 56b0 5b3e a251 1c3e 5beb 92bd
000002f0: fb65 ddbd 53e4 323d fdb2 93bd 0d28 f9bd
00000300: e99b 853e 67a2 b33e ba8a 25bd d032 bbbd
00000310: 4435 c33b bbaf c7bc 8e01 c93d 1e4d ea3d
00000320: c0d8 bdbe 5d46 1abe 4806 b03e 1dda 223e
00000330: 4257 a6bc e10a 7cbe 49c3 7fbe 6a3c bbbe
00000340: 7344 08be 0c2d 0d3e 1647 853e c702 413e
00000350: c7c3 b8be b865 7bbe 07f3 83bd cc32 ca3e
00000360: e4e4 713d 0486 d8bd bef3 2c3e e239 1fbe
00000370: 9a4a 87be 3690 983e 1d16 3ebe d79b a7bd
00000380: e6ef cfbe 9fe4 8b3e f85c 9e3e 305b 183e
00000390: 17bf 91be 144b cebe a2c3 a9be 5dde 9b3e
000003a0: d8b4 483e d6e4 af3e 7900 5b3e c59b d33d
000003b0: 6000 83bb 9ef6 9ebe d015 b3be 6f82 c3be
000003c0: da21 2b3e 513f 4dbe 0a44 a8bd 7c96 70be
000003d0: 135b 98bd 261e 93be 3994 88be a4ab 0a3e
000003e0: d27b f8bd fc09 813e e71c 06be 2055 99be
000003f0: ef84 93bd 98a5 4abe a4cb ffbd 36fd c6be
0.31212157 0.33884934 -0.095641345 0.3750215 -0.08944866 0.082380705 -0.19875774 0.23975715
0.3598884 -0.29950246 0.35484788 0.07640747 0.30161747 0.055289302 0.19685248 -0.05764099
0.31471282 0.060342737 -0.1905866 0.104061805 -0.18809494 -0.047876444 -0.16581345 0.27082008
-0.32225904 -0.18820669 -0.11527901 -0.24546847 0.03853175 -0.40321833 0.36869276 -0.34679398
0.31517887 0.06794033 -0.13256007 0.25227702 0.06362581 0.3298497 0.044629578 -0.12875056
0.10968965 -0.11070854 0.17181438 0.36449313 0.23599184 -0.17847495 0.23566732 0.07304633
0.20732279 -0.24882941 -0.40412846 -0.15773103 -0.31313577 0.33498362 0.117588304 0.16910197
0.1291131 -0.0071018767 0.3194985 -0.29006597 0.025704833 -0.27864587 0.12588418 -0.14059348
0.12509392 -0.08505505 0.3385978 -0.24196956 -0.24347848 -0.24349317 0.367196 0.13604921
0.39283723 -0.33691764 -0.40493175 -0.31939867 -0.27462417 0.16535695 0.14618386 0.33922347
-0.21082978 -0.27830768 0.21660763 -0.1650158 0.24777561 -0.09687758 0.23353678 -0.31719586
-0.20602241 0.124465294 0.08630677 -0.10408647 0.24334435 0.27753097 -0.2960508 -0.21795079
0.37381744 -0.13775624 -0.14473072 -0.39501888 -0.23379165 0.10198192 -0.05388599 -0.29634172
0.009576155 -0.27886686 -0.3463565 -0.22480708 -0.35730386 -0.25994724 0.40808862 0.077107884
0.12580568 -0.38076678 -0.2681268 -0.13588783 0.06383824 -0.35922638 -0.17590319 -0.24440543
0.0011313616 -0.15191051 -0.028289879 -0.2766412 -0.28021967 -0.2381728 -0.13974234 -0.3222226
0.3423039 -0.081022605 0.3512555 0.12720285 -0.34570342 0.2825222 -0.112327404 -0.15649222
-0.33887488 -0.4058644 0.11680418 -0.08917934 0.15894051 -0.33503446 0.30309543 -0.29967618
-0.0704936 0.0852707 0.21075892 0.32958308 0.37189758 -0.32370913 0.10274273 -0.17559819
-0.044737812 -0.30556983 0.37185648 -0.29963404 0.21818882 0.14347462 0.13266271 -0.22071789
0.37107792 0.08971273 0.052517086 -0.35977077 0.17137794 -0.061245654 -0.18702847 0.35066348
0.09101847 -0.22587416 -0.20663036 -0.019496191 0.22795005 -0.10432125 -0.23293623 -0.13980173
-0.30499205 0.1455946 0.3160006 -0.38434142 0.09481595 0.21089773 0.074027404 -0.14538728
0.213082 0.21453986 0.15265515 -0.07173797 -0.10810467 0.04367478 -0.07211874 -0.12165842
0.26095513 0.3508484 -0.040415503 -0.09140551 0.0059572775 -0.024375787 0.0981475 0.1144049
-0.3707943 -0.15065904 0.34379792 0.15903516 -0.02030528 -0.24613525 -0.24976839 -0.3656953
-0.13307361 0.13786715 0.26030797 0.18848716 -0.36086866 -0.24550521 -0.06442838 0.3949188
0.059056178 -0.105724365 0.16889855 -0.15549424 -0.26424104 0.29797524 -0.18563123 -0.08184021
-0.40612715 0.27322862 0.30930305 0.14878535 -0.28466102 -0.40291655 -0.33157068 0.30443087
0.19600236 0.34354275 0.21386899 0.10332445 -0.0039978474 -0.3104753 -0.3497758 -0.3818545
0.16712132 -0.20043685 -0.082161024 -0.23494905 -0.07439246 -0.2873394 -0.26675585 0.13542038
-0.12132992 0.2520293 -0.13096963 -0.29947758 -0.072030894 -0.19789732 -0.12490013 -0.3886506

net.0.bias f4 [128]
00000000: 6c88 86be 78b4 db3e 2bbb 363e c7ff 1c3e
00000010: c41d 7abe 1545 37be 596c 7cbd 90e7 98bd
00000020: 963b 8fbe 0892 6f3c b95d 1b3d d8bb 53bd
00000030: c144 3f3d 62b1 25be 7bed 0f3e f163 2c3e
00000040: 8733 5cbe 5143 cfbe 8827 743e 2571 ad3d
00000050: 019d 54be 64b4 cd3e 820f 3dbe 63fb 973e
00000060: 3907 543e 273f afbe c350 6f3e ed30 c0be
00000070: 919a 67be 9b63 8bbd 2de4 8cbe 4283 f43e
00000080: 01b4 a7bd 8e13 3e3e a6a3 babe a9d4 893e
00000090: 07ec 01be 76ff 9ebe 6639 903c 399a 563e
000000a0: 991e c23e ef56 7fbe edb8 4dbe d854 b13d
000000b0: 2369 923d d61f 393e b51b 793e 4b96 bdbd
000000c0: 8212 503e a3f0 a63e c667 dabd 42b4 963e
000000d0: e7c8 5c3e 0416 ae3e 9690 6dbe 5c6f 4ebe
000000e0: 34bf f1bd 20ca f43c d739 803e a2a5 6ebe
000000f0: 8e1e 5b3e ecd1 15be 3376 7f3e 0fc8 9ebc
00000100: 581f b7be 3a07 66be ea47 97be 90f3 653e
00000110: fb28 8cbe d152 0bbd 6136 233d 1d41 65be
00000120: 01c7 043e 5718 ccbe cd8e 95be 9866 bdbe
00000130: 29e6 fcbd 0d4b 18be fdd3 9a3d 099b 9abd
00000140: c35f 2b3e 9d95 c23e d0e4 043e 57b2 24be
00000150: ecb9 c3be 2f27 203e d31f 4fbe c74c 633e
00000160: 6d59 853e 6958 253e 279a c83e 9bad b93e
00000170: 7703 b23d 4c4d 98be 72a7 bd3e 775c 46be
00000180: 3577 45be 80b1 a83e f78a 9c3e b498 043e
00000190: dd4a e43c b9d2 afbe 6694 2dbd dabc d13e
000001a0: 53f5 623d beee 693c 8f9d adbd a1ce 11be
000001b0: c718 883e a8da 563d a94c 7d3e bafc 93bd
000001c0: 8b4d 4c3e 9ae2 423e 340a a83d 709a 8b3e
000001d0: 7524 883e 43ec bf3e 790a 993e 3bc9 d5bd
000001e0: 95f6 b0be a135 cf3d 4086 69bb fc12 dabd
000001f0: f501 8cbd c5c1 b93c 46f6 963e adfd 1b3e
-0.26275957 0.42911124 0.17844836 0.15331946 -0.24425417 -0.17897446 -0.061626766 -0.07466042
-0.27975148 0.014622219 0.037931178 -0.051692814 0.04669643 -0.16180947 0.14055435 0.16835
-0.21504031 -0.40481046 0.23843205 0.08468846 -0.20763017 0.4017669 -0.18462947 0.2968398
0.2070588 -0.3422787 0.23370652 -0.37537327 -0.22617556 -0.068061076 -0.27517834 0.47756392
-0.0818863 0.18562147 -0.3645298 0.2692006 -0.12687694 -0.31054276 0.017605495 0.20957269
0.3791397 -0.24935506 -0.20090075 0.08658761 0.071489595 0.1807855 0.24326976 -0.09257182
0.2031956 0.32605466 -0.106643245 0.294344 0.21561013 0.34001172 -0.23199686 -0.20159668
-0.11804047 0.029881537 0.25044128 -0.23305371 0.21398374 -0.1463086 0.24947433 -0.019382505
-0.357661 -0.22463694 -0.29547054 0.22456193 -0.27375016 -0.034014527 0.03984678 -0.2238812
0.12966539 -0.3986232 -0.2921051 -0.36992335 -0.12348587 -0.1487238 0.07559965 -0.07549102
0.16735749 0.3800477 0.1297791 -0.16083656 -0.38227785 0.15639947 -0.20226984 0.22197257
0.2604479 0.16147007 0.3918011 0.36265263 0.08692067 -0.29746473 0.37041813 -0.1937121
-0.19283755 0.32947922 0.30574772 0.12948877 0.027867729 -0.34340456 -0.042377852 0.40964395
0.05540974 0.014278112 -0.084773175 -0.14238979 0.26581404 0.05245462 0.24736275 -0.07225938
0.19951455 0.19031754 0.08205071 0.27266264 0.26590315 0.3748494 0.29890803 -0.10438772
-0.34563127 0.10117651 -0.0035632998 -0.10648152 -0.06836311 0.022675404 0.29484767 0.15233488

net.3.weight f4 [64, 128]
00000000: d18e 00bd 1ce1 14bd e14d b3bc d4ed 0bbd
00000010: d7c6 a23d 89c0 3f3d c074 a33d c8fe 9339
00000020: 7b06 923c 9e15 fb3c 2b58 abbd b550 013c
00000030: f0bb c1bb 7bfa 4abd 2376 8cbd 7540 a03d
00000040: 402e 933d 28cb 273d d7bc ac3d 0beb 12bd
00000050: 1221 7abc 1713 093d 0d46 6fbc d516 8ebc
00000060: a49f 95bd 1288 c23c 31ca 5abd daa7 523b
00000070: 4b7d b03d d1e1 debc 2439 e4bc 2e6c 5a3d
00000080: cd1a 05bd 42ba f8bb 5406 a93d 256d 14bd
00000090: ca80 81bd d89c 4abd 4ebf c8bc 72c9 2bbd
000000a0: 94df 3bbd 583e 123d 9b18 763c d4bf e7bc
000000b0: d0a2 8cbd 9ffb e3bc 64cb 18bd e4a0 ebbc
000000c0: 3c4d a3bd c0fc 9b3c caff 84bd 4bfa 8cbd
000000d0: 18e6 93bd e91b 173d faf4 59bd 886e 15bd
000000e0: ece3 8d3d c63a 403d fc96 4f3d 09e1 abbd
000000f0: 16cf 81bd 70ac 08bd 268a 953d 9525 143c
00000100: 4462 87bd e816 113a aa97 8cbd 13a5 9ebc
00000110: 6c1a c7bc 95b3 9c3d fa45 e03c 3084 7cbc
00000120: 8ca2 743c 2404 d1bc c03e 0e3d 9c35 0f3d
00000130: ba72 c23c 441d 0dbd d06f 9a3d ee11 51bc
00000140: 9cf2 0cbd fabf 623d 808a 933d a624 b43d
00000150: 9283 d63c 62d5 f6bc 65e0 373d 6d4e 9b3d
00000160: c98c b1bd 4f68 33bc dbe5 76bd 5af0 863c
00000170: d4bb 153d eb95 95bc 064c f2bb 1ff5 223d
00000180: 1564 73bc 2e04 98bd 0fd7 903d 2538 36bd
00000190: 9517 1fbc 6499 083c 210f aebb 4848 aabd
000001a0: 731a 263d 0a73 24bd 5bc6 3bbd 46fe ac3c
000001b0: 2aef 3cbd d551 27bd 52fa f3bc 8302 08bd
000001c0: 6f33 17bd ff45 c3bc 8f2b bc3c ed7b 92bd
000001d0: 8722 5bbd a40b a93a 6464 493c 84f3 473d
000001e0: d74f 7ebd 8f1f e73c 71c7 4d3d 9106 493d
000001f0: f59a a8bd cd27 0abd 1699 9bbd 2a1a 65bd
00000200: 3ba6 493d 6b5b dabc 336c 993c 2413 7abd
00000210: ba0f 5c3c 61fb 5abd f0fa 343d 1e59 1ebd
00000220: aa91 b5bc bfe5 aabd b29a 21bc d0df ab3d
00000230: f60a ef3c 9729 41bd 7f67 c0bb 45d0 f6bc
00000240: e7bb 91bd 87ef 8d3d 3ae7 c8bb ce01 023c
00000250: a333 12bd aa45 50bd 1dc9 6e3c 09c8 ed3c
00000260: 352b 073c 957b 2ebd 133f 963d bc2c 55bc
00000270: cbb7 5dbd 7f54 29bd fe32 b23d 1f48 34bc
00000280: 2094 44bc c664 3bbd 44d0 bdbc 09d6 b6bd
00000290: 63da 8fbd bde5 533d f74b 863d 5109 9a3d
000002a0: a29b b7bd 3cd0 433d ff16 60bd e500 1a3d
000002b0: a533 3a3d 982b 523d edb4 623d 527b 623d
000002c0: 8e86 4cbc 7c98 f03c e386 01bd 6a05 c43c
000002d0: 6765 38bd f1a3 e9bb 2f8e 9dbd ed53 bdbc
000002e0: e762 3ebd a417 51bd bc8d 9bbd 19d1 a2bd
000002f0: e365 f6bb a0f4 6a3d 6737 873d e844 533d
00000300: 7ea8 3bbd a607 b3bd 8753 093d f663 213d
00000310: 4368 9bbd 70d2 013d 1047 8a3d ce72 af3b
00000320: 4f62 8abd d969 943d a598 1a3d 10be 6f3d
00000330: 6dd7 74bd d1af 523d 1a39 81bd 1b1e b33d
00000340: 1675 32bd 0ae3 123d df77 463c 59e3 bf3c
00000350: ee14 5ebc d6c9 033d 36e3 16bd 99e7 cbbd
00000360: 8099 18bd d5e4 423d f80b 4fbd 25ba 753c
00000370: e8aa 3dbd a1ca 873d a67a 2d3d f39b ff3c
00000380: 6f0f 39bd 0fc2 a8bd 632d d5bc 7b2f 85bd
00000390: 8f53 873d 87f4 adbd 9ac8 213d d55e 953d
000003a0: a6cf 063d 7bb3 a03c ca2a aebd 0b1f ae3d
000003b0: 2c4b cbbc 21f8 cfbd 39ee 903d 1c53 13bd
000003c0: 421c 91bc 3a49 913d e296 a4bd 317d aabd
000003d0: 9916 9a38 a934 fabc 9ef8 453c 66d2 97bd
000003e0: da3c 2d3b 2aaa 62bd 3efb 31bd 7cbf a5bd
000003f0: a5f5 3f3d af0b e83b 1284 95bd 4618 833d
-0.0313862 -0.036347494 -0.021887721 -0.034162357 0.07948082 0.046814475 0.07981253 0.00028227852
0.017825356 0.030649956 -0.08366426 0.007892777 -0.0059122965 -0.049555283 -0.0685847 0.07824794
0.07186556 0.04096523 0.08434456 -0.035868686 -0.015266674 0.03346547 -0.014604104 -0.017344872
-0.0730584 0.023746524 -0.05341548 0.0032143504 0.08617648 -0.027207287 -0.027859278 0.053325824
-0.032496262 -0.007590563 0.0825316 -0.0362369 -0.06323393 -0.049465984 -0.024505284 -0.04194016
-0.045867518 0.035703987 0.015020515 -0.028289713 -0.068669915 -0.027829943 -0.037303343 -0.028763242
-0.07973716 0.019041419 -0.064941004 -0.06883677 -0.07221621 0.03689185 -0.053212143 -0.036482364
0.06928238 0.04693105 0.0506811 -0.083925314 -0.06338327 -0.033367574 0.0730174 0.009042163
-0.066105396 0.00055347243 -0.06864865 -0.019365823 -0.024304591 0.0765144 0.027377117 -0.015412375
0.014931332 -0.02551467 0.03472781 0.034963235 0.023736347 -0.034451738 0.07540858 -0.012760622
-0.034411058 0.055358864 0.07204151 0.08796053 0.026185784 -0.030131046 0.044891734 0.07583318
-0.08669431 -0.010950162 -0.0602778 0.01647203 0.03655608 -0.018259963 -0.0073943166 0.039784547
-0.014855404 -0.07422672 0.07072269 -0.044487137 -0.009710212 0.008337352 -0.005311862 -0.08314568
0.040552568 -0.040148772 -0.045843463 0.02111734 -0.046126522 -0.040849525 -0.029782448 -0.03320552
-0.036914285 -0.023837088 0.02296999 -0.07152543 -0.053499725 0.0012897146 0.012292001 0.04881622
-0.06208786 0.02821329 0.05023903 0.049078528 -0.08232681 -0.033729363 -0.07597558 -0.055933155
0.049230795 -0.02665492 0.018728351 -0.06105341 0.013431484 -0.05346239 0.044184625 -0.038659208
-0.022164185 -0.08344602 -0.009863542 0.08392298 0.029180031 -0.047158804 -0.0058717127 -0.030128608
-0.07115918 0.06930452 -0.00613108 0.007935001 -0.035693776 -0.050847687 0.014574316 0.029026048
0.008250047 -0.042598326 0.07336249 -0.013011154 -0.054130357 -0.041340347 0.08701132 -0.011003523
-0.011998206 -0.045750402 -0.023170598 -0.08927543 -0.07024076 0.051732767 0.06557458 0.07521308
-0.089652315 0.04780601 -0.05470943 0.03759851 0.04545941 0.051311105 0.055348326 0.05529339
-0.012483252 0.029369585 -0.03162278 0.023928363 -0.04501858 -0.007130139 -0.07693135 -0.023111308
-0.04648104 -0.051047936 -0.07595393 -0.079500385 -0.00751947 0.0573622 0.06602364 0.051579386
-0.045814984 -0.08741693 0.033526924 0.03940197 -0.07588246 0.03169483 0.06751835 0.005354262
-0.06757032 0.07246751 0.03774323 0.058530867 -0.05977576 0.051437203 -0.063097194 0.087459765
-0.043568693 0.035861053 0.01211354 0.023423837 -0.013554795 0.032174908 -0.03683778 -0.09956283
-0.037255764 0.047581512 -0.050548524 0.014997994 -0.046305567 0.06630445 0.042353295 0.031202292
-0.045180734 -0.08240139 -0.026022619 -0.06503197 0.066077344 -0.084939055 0.03949795 0.072934784
0.032912873 0.019616833 -0.08504255 0.08502015 -0.024816118 -0.10154749 0.07076687 -0.03596793
-0.01771367 0.07094045 -0.08036591 -0.083246596 7.3475014e-05 -0.030542688 0.012083201 -0.07413177
0.0026433975 -0.055338062 -0.043452494 -0.08093163 0.046865124 0.007081471 -0.07300581 0.06401114

net.3.bias f4 [64]
00000000: dbb3 66bb bf92 6bbd 01ea 9d3d 587c 6d3d
00000010: c254 df3b 4772 83bd 48b4 5cbd 59a7 bdbd
00000020: dec4 41bd 32e7 5fbd 3a2f a4bc bb8e 80bd
00000030: 759a 053d 237a 92bd 9897 25bd 46b5 80bd
00000040: dcf8 05bd 98e6 853d da9d 4a3d 8e06 a13d
00000050: 6fa1 ddbc 3d6c f03b 5b9c 9e38 2237 0f3d
00000060: c1d2 243d 22d2 173d 1332 6e3d da7a b63d
00000070: d17d 9a3c f19f bb3d 810b 79bd 3f31 d9bb
00000080: 1953 c8bb 3f3b 0bbd 63ec 253b 766a c1bd
00000090: d597 88bd d363 bfbc cb3b 093c eaa8 6c3d
000000a0: d6b7 98bd cfb4 553c 41f5 973d 6efc d6bc
000000b0: d3a4 fbb9 455c 1dbd cd20 34bc d5a3 1fbd
000000c0: 4904 a93c 3170 b8bc bc78 823d f3ef c83c
000000d0: b3e4 babd 8cbd 38ba b6ac 903d 42a9 1dbd
000000e0: b34a 74bd 8d27 edbc 0d18 bcbd 0b07 7dbc
000000f0: b785 1a3d 67a6 72bd d5c0 afbd c7be 87bd
-0.0035202417 -0.057512995 0.07710648 0.05797991 0.006815524 -0.06418281 -0.053882867 -0.09260435
-0.047306888 -0.054663844 -0.02004205 -0.06277224 0.032618005 -0.07152202 -0.040427774 -0.06284575
-0.032708034 0.06538123 0.049466945 0.07862578 -0.027054517 0.0073371218 7.5631506e-05 0.034964688
0.040240053 0.037065633 0.058153223 0.08910151 0.018858822 0.09161366 -0.060801987 -0.006628185
-0.0061134216 -0.03399205 0.00253179 -0.09444134 -0.06669585 -0.02336303 0.008376072 0.057778277
-0.07456939 0.013043596 0.07419825 -0.026243415 -0.00047997254 -0.038418073 -0.010994148 -0.0389746
0.020631926 -0.022514435 0.063706845 0.02452848 -0.09125652 -0.00070472877 0.07064192 -0.038491495
-0.05964155 -0.028949523 -0.09184275 -0.015443574 0.037725177 -0.059240725 -0.08581702 -0.06628185

net.6.weight f4 [32, 64]
00000000: 9201 bbbd 213f 9f3c ee20 753d b835 a73d
00000010: 648e 233e 457f 4c3d 4311 5fbd 2f87 99bc
00000020: d476 83bd 1528 b33d a77f 493d 64ff 6b3d
00000030: 5ef0 8ebd 8891 c73d 2fea 63bd e49e bd3d
00000040: 6f5a cfbd fe75 b83d 6c67 71bd 41a3 cabd
00000050: 18b5 673d 1b7e 0c3e 3631 323c 67fe 593d
00000060: 367f ef3d 6616 b7bd d153 823d d1d2 893d
00000070: 8696 a3bd f163 9a3d d52a b93d 8b11 063e
00000080: 0be1 82bd 852f f33d 08be f23d 4c7d 703d
00000090: c190 f6bb cd7d cd3d ede4 64bd bc5d 99bd
000000a0: ba8f a53d fdc9 a93d 6aaf 2a3d 78a9 fe3d
000000b0: f83a a83d 35fb 893d 3888 cc3d 9dc5 0d3e
000000c0: 8355 d63d 369b d93d 58ec 733c 38dd e13d
000000d0: 5989 a73d 1b3a 96bd 4676 cd3d e0c0 0e3c
000000e0: 3a94 e6bc f60f cd3d dda7 083d 718f 023e
000000f0: a3ad 473d f7c5 de3c e337 a13d 6f9b aabc
00000100: ca16 9f3d 32be 85bd 2a39 18bc f654 ee3c
00000110: 778a 9c3d 77ea 813d 500c 043e 2adc 53bd
00000120: 20f9 21bc 1b39 603b 5375 d83d 64ad f13d
00000130: 0f52 1d3d 5ee2 cebd 958a 7cbd 93c5 753d
00000140: 8731 ddbd 854a 58bd 0523 abbd e47d 8d3d
00000150: 1832 37bc 6b24 aabd 5453 ba3d 1de5 cbbd
00000160: f3bb 843c fe31 fe3d 645c 563d a9dc bcbd
00000170: 1bcc 033d 2677 4e3c 4209 bc3d 2768 0a3e
00000180: 0200 fd3d a834 5cbc f826 4a3d 3c85 e4bd
00000190: 4071 e03d 8498 9a3d 077a 61bd 7640 debc
000001a0: ada7 0dbd 2712 98bd 5775 8c3d 14ff 1abc
000001b0: f980 423d d40a e2bc 914e c03d 329f 39bd
000001c0: 454a d73c 3019 12bd 5cd0 903c ce97 7bbc
000001d0: 68d7 72bd a0d0 05be cfc2 ab3d 7815 8e3c
000001e0: 8a96 83bd 8e1a 8a3d 69e5 343d 3c42 25bd
000001f0: a552 fd3c 3d2f 523c 810f c13d b424 e6bd
00000200: dab1 c6bd ebb9 debd 53cd e5bd 8e7e 5abc
00000210: 6407 6e3d 1214 393d 136b 653d a919 a23c
00000220: 0020 1cbb e2c3 04be 23b6 f13d 8e69 f73d
00000230: 6a64 4cbc a8ff b83c ae07 a63c a8ba 043e
00000240: 72f8 1ebc ac42 09bd a069 9dbd 499f 0f3d
00000250: 9c09 6c3d c142 e6bd f047 e23c 618e 743c
00000260: b7d5 303d bb12 2d3d 98c7 5dbd 3491 0bbc
00000270: 1626 c6bd 73b8 6c3d bcd4 d4bd db62 02be
00000280: ed0b debd 8d87 92bd 2d2d 4cbc 40ff a73d
00000290: 7547 34bc 08e3 993d 7037 0cbd 42f8 db3d
000002a0: dad3 a23d 7bd6 a23d 9a3e 953c ce27 bcbd
000002b0: 5049 d83d 2055 08be b0c0 d0bd 851a bbbd
000002c0: 4ac1 8bbd c719 2b3d ab9d 7a3c 3ec9 f2bd
000002d0: 0e18 003e c444 f03d 495a 1f3d e6c5 fabd
000002e0: 98cc 813d d415 b23c 9b81 29bc 4d7a 07be
000002f0: c11f b43d 5d3e 55bd 47fb bcbd a692 b23d
00000300: 5cd0 473d 80ab 573d 2036 c33d de24 353d
00000310: 6299 adbb 1fc7 b6bc 34fb dc3d 8ff7 96bb
00000320: 64d5 d5bd 350a 88bd ab19 bcbd a0c1 433c
00000330: f627 d63d 6224 993d b2ae 223d d2e3 2f3d
00000340: 8c1e 56bd 2022 043e f012 653d 53a2 afbd
00000350: f1c6 b6bd 6629 cabd b560 debc 972e b03d
00000360: 38dd 50ba 9fdb 35bd e5af 0f3d f037 83bd
00000370: 9d73 9c3c 4d3c b43d afc8 8b3d fc4e 57bd
00000380: 14f5 f1bc 6ece 5a3d ce53 8f3d 0560 2bbd
00000390: 69d3 1abc 6d8c 17bc 027e 7e3a d188 b8bd
000003a0: 54c4 babd 9b55 c63d 5dff efbc f6a8 e83d
000003b0: c164 a43d c537 d8bc b87e 7bbd 2678 d13b
000003c0: de38 143c accb 87bd e8e0 073e eb81 363c
000003d0: 08a7 05bd 9b1b 95bd 46d2 f63c d0ea 8d3c
000003e0: 9616 0c3e 3179 0bbd ad5e 423d 669a 973c
000003f0: a721 be3d 1760 4ebc f187 88bc 0a52 583d
-0.09131159 0.019439282 0.059845857 0.08164543 0.15972286 0.04992606 -0.05445982 -0.018741218
-0.06419149 0.087478794 0.049194004 0.057616606 -0.0697944 0.09744555 -0.055643257 0.092588216
-0.10124671 0.0900688 -0.05893652 -0.098944195 0.05656919 0.1371998 0.010875991 0.053221133
0.116941854 -0.08939819 0.06363643 0.06729663 -0.079876944 0.075385936 0.09041373 0.1309263
-0.0639058 0.11874298 0.11852652 0.058713242 -0.00752458 0.1003376 -0.055882383 -0.074885815
0.08084054 0.08290479 0.041671194 0.12434667 0.082143724 0.06737367 0.09986919 0.13844915
0.10465529 0.10625307 0.014887892 0.11028522 0.08180494 -0.073353015 0.100323245 0.008712977
-0.028146852 0.1001281 0.033363212 0.12750031 0.048749577 0.027194006 0.07871988 -0.02082607
0.077680185 -0.065304175 -0.009290973 0.029093247 0.076435976 0.06343549 0.12895322 -0.051723637
-0.009886056 0.0034213725 0.10569253 0.1180065 0.038408335 -0.1010177 -0.0616556 0.060002875
-0.10800462 -0.052805442 -0.08356289 0.06908777 -0.011181377 -0.083077274 0.09097925 -0.09955809
0.016202902 0.12411879 0.052334204 -0.09221775 0.032177072 0.012601649 0.09181453 0.13516293
0.12353517 -0.013440289 0.04935357 -0.11158225 0.10959101 0.07548621 -0.055048015 -0.027130347
-0.034583736 -0.07425337 0.06858318 -0.009460229 0.04748628 -0.027593054 0.09389985 -0.045317836
0.026280532 -0.035668552 0.017677478 -0.015356017 -0.05928746 -0.13067865 0.08386766 0.017344221
-0.064251974 0.06743346 0.044164095 -0.04034637 0.030923197 0.012828645 0.09426785 -0.11237469
-0.09701891 -0.10875305 -0.11220803 -0.013335837 0.058112517 0.045185156 0.056010317 0.019787626
-0.0023822784 -0.12965348 0.11802318 0.1208068 -0.012475112 0.022582844 0.020267334 0.12961829
-0.009702789 -0.03351085 -0.07686162 0.035064016 0.05762635 -0.11243201 0.027622193 0.014926524
0.043172564 0.04225419 -0.054145426 -0.008518506 -0.09675233 0.057793092 -0.10392138 -0.12733023
-0.108421184 -0.071547605 -0.012461943 0.08202982 -0.011003365 0.07514006 -0.034232557 0.10740711
0.07950564 0.07951065 0.018218327 -0.0918728 0.10560858 -0.13313723 -0.10193002 -0.091359176
-0.06823976 0.04177263 0.01529638 -0.1185479 0.12509176 0.11731866 0.038904462 -0.122447774
0.06337851 0.021738924 -0.010345842 -0.13230248 0.08795119 -0.052061427 -0.09227615 0.08719377
0.04878269 0.05265379 0.09531808 0.044224612 -0.0052978257 -0.022311745 0.10790101 -0.004607148
-0.10441092 -0.06642572 -0.09184583 0.011948019 0.10456841 0.074776426 0.039717384 0.042941876
-0.052275226 0.12903643 0.055926263 -0.08575883 -0.08924664 -0.098711774 -0.027145723 0.08602636
-0.00079675345 -0.0443989 0.035079855 -0.064071536 0.019098097 0.08800564 0.06825387 -0.05256556
-0.029535808 0.053419523 0.06998406 -0.04183962 -0.009449818 -0.009249789 0.00097081077 -0.09010471
-0.09119478 0.09684297 -0.029296571 0.11360352 0.0802703 -0.02639378 -0.061400145 0.0063924966
0.009046761 -0.06630644 0.13269389 0.011139373 -0.032629997 -0.07280656 0.030129563 0.017323881
0.13680491 -0.034051124 0.04745357 0.01850624 0.092837624 -0.012596152 -0.016666384 0.052812614

net.6.bias f4 [32]
00000000: b881 663d 8605 453d 0f35 763d 0671 c03d
00000010: 0612 dfbd e7cb 383d 17fd d23d e87a 43bd
00000020: 4aa5 9cbd e2e2 e5bd 3c42 1dbe 74e4 9f3d
00000030: 0e35 4b3d 72ca 9bbd 6dce f6bd 120c ebbd
00000040: eb53 dd3d 641a 133d a1d6 4e3d 2419 acbc
00000050: 3122 2f3d 0ded 923c dd99 ba3d da49 0e3d
00000060: e6d8 65bd 7fa1 62bd 1091 473d e4ed 833d
00000070: 85ed 993d 2cd0 cebd f330 673d 8242 01be
0.056276053 0.04810097 0.060109194 0.093965575 -0.108921096 0.04511633 0.10302179 -0.047724634
-0.07648714 -0.11224915 -0.15357298 0.07807246 0.049611144 -0.07606973 -0.12051091 -0.114769116
0.10807022 0.03591384 0.050497655 -0.021008082 0.042757217 0.0179353 0.09111378 0.0347384
-0.056115054 -0.055329796 0.048722327 0.064418584 0.075160064 -0.100982994 0.056443166 -0.12623027

net.8.weight f4 [18, 32]
00000000: 6de5 213c 8315 15be c674 bcbd d402 e2bd
00000010: c27f 213e 52bc 253e ff45 b3bd fbf1 ccbd
00000020: fd3c 6bbe b54f 14be 777e febd 5ab7 9c3b
00000030: af8e 3dbe c7d4 d5bd 743a 693c 4c16 86bd
00000040: 4dba 8fbc 8f7d ed3c b6cf 323e 9384 62be
00000050: 63ff 13be b26e a23d ec7f 0e3d 09ea e13d
00000060: 7590 9fbd 8edf 1abe 72cc 57bd a2b4 2bbe
00000070: 2da3 913d 047e 053d 4f74 0ebe 72a0 1ebe
00000080: d88b b73d a543 433d 88ed dbbd e62a 15bc
00000090: ada4 f0bd d49a 8d3d e6d7 d93c ef2c 1a3d
000000a0: ee8c e5bc 477a 1d3c 0094 2abe ac6a 173e
000000b0: 18e2 e6bc 6697 97bd 68ab 503c 801b 3ebe
000000c0: 5184 563d 5621 143e 48ec cb3d da75 ffbb
000000d0: 48a9 483d b8ef 493c 0203 8a3b b8f2 8d3d
000000e0: 1d0b 7abc 0ebc 193d df4b d7bd 04f2 c4bc
000000f0: cafc e73d 621a 993d 0556 cabd 0270 2a3d
00000100: 1e09 87bd cfa3 b93d 9277 883d 80a5 5bbd
00000110: af5d 063e 0528 053e 59d8 3c3e d066 8a3d
00000120: a8a7 d83d 587d 55bb f77a 04be 1756 c93d
00000130: 916c 16bd da07 5abd c498 d1bd a4f7 a1bd
00000140: 3a23 c9bd 0668 82bd 892b 203e 72db a53d
00000150: c66a d6bb e20e ff3d 7564 433e 5913 bcbc
00000160: 1e7c b4bd 9912 f03d 786f e1bd eab4 9fbd
00000170: 7468 c8bd f852 bdbd 97ef a7bd 9724 4b3c
00000180: b0eb a1bd 3664 033e bc71 23be 5258 06be
00000190: 16e9 26be 1b23 00be edf5 103d fd06 21be
000001a0: 7e74 42bd ffb3 b8bd 50d6 62bd 71f9 8bbd
000001b0: 47fe f03d 07dc bcbd 1eaf fabd c7c7 ac3d
000001c0: 094f 373e f02a 193e 0a34 09bd 7d76 223c
000001d0: e569 b2bd 7a33 62bc 397b 173c feec e7bd
000001e0: 4555 a1bd acf4 993d ca12 0b3d 1060 1d3e
000001f0: fd61 7bbd 5908 96bd 50a3 1fbe 0d20 d2ba
00000200: 95ab 03be 1902 55be 9b70 f13b 3e34 d9bd
00000210: 9fda dabd 8b5d ab3d b873 25be 898a 1b3c
00000220: 953a 863d ce83 e23d 9ad4 d7bd fcfb 8d3d
00000230: 73db 1bbe 4c5f 95bd 98a8 80bd f6e9 dbbd
00000240: c98b b0bc f61c 1e3e 0cb7 e0bd b02c aa3d
00000250: 55f5 94ba 9cf5 21be 8a50 51be 2ae9 a13d
00000260: 3114 c83d ce64 e93d 9104 053e 1f94 24be
00000270: fba9 f9bd 7996 96bd 2b9a f6bd ec8c c6bd
00000280: 8071 8b3c 912d c9bc a0a3 ba3d fbd0 dbbd
00000290: 358e 1a3e ed25 d93b ee59 633d f068 a33d
000002a0: a154 91bd 8d98 2a3e 6b53 723d db7a 19be
000002b0: e1f9 81bd a427 13be 2b9c 893c 3305 06be
000002c0: 2bdd bdbd 9270 d1bd 6a80 58be 2405 193e
000002d0: 6c27 98bd e1d4 94bd 9efc 5cbd f69a 5cbd
000002e0: 3759 18be e265 f03c 3118 1cbe 0647 39be
000002f0: 7733 11be c755 41be aa34 d43d f2ca 62bd
00000300: 6b1f 553e e4fc b1bd 1515 0dbe e13a ee3d
00000310: c67b a9bd 8f3a 66bc e16d 5ebd 53ae 06be
00000320: b7a6 b9bd 31aa e3bd 6c7a 5f3d 7485 883d
00000330: fea0 163e ff21 1d3e aa50 a73d ad8f 07be
00000340: 9384 183e 0858 e73d 953a abbc 95f6 c43b
00000350: 89cb 963d f921 48bc 0bd8 5bbd 7404 c03c
00000360: fbcc 54bd b5f9 d73d 6a08 033e 82bb 2c3e
00000370: 4865 d83c 65da 35be d56e 543e d035 b43b
00000380: d1c8 a03d cb73 c0bd d84e d8bb 33b9 6b3d
00000390: 4a3f 93bd e4bd dfbd a4c9 833d 8684 f13d
000003a0: b863 cb3d 6a81 763d f938 a8bc 5b33 bd3d
000003b0: cd82 0dbd d2d3 c93d e987 703d b4ca 5ebe
000003c0: f6d5 193e 117c 463c 4372 10be 0c3e 1cbd
000003d0: 5685 2a3e 5b3d 05be bee3 523d bae9 3fbd
000003e0: 18d4 3fbe f896 523d 57c0 ce3d b94a 2c3e
000003f0: 175a 17be 95c7 ea3c c8d9 fa3d 2105 05be
0.0098813595 -0.14558987 -0.0920196 -0.11035696 0.15771392 0.1618512 -0.08753585 -0.100070916
-0.22972484 -0.14483531 -0.12426465 0.0047825994 -0.1851146 -0.10440975 0.014235128 -0.065472215
-0.01754489 0.028990535 0.17462048 -0.22120886 -0.14452891 0.0793127 0.034789965 0.11030967
-0.07791225 -0.15124342 -0.05268521 -0.16768125 0.071112014 0.03259088 -0.13911556 -0.15490893
0.0896222 0.047671933 -0.10738665 -0.009104466 -0.117501594 0.06914297 0.026592206 0.03764051
-0.028021302 0.009611673 -0.1665802 0.14786786 -0.028183982 -0.07401924 0.012736179 -0.18565178
0.05237228 0.14465842 0.099571764 -0.0077960314 0.048989564 0.01232522 0.0042117843 0.069310606
-0.015261439 0.03753286 -0.10512518 -0.024041183 0.113275126 0.07475735 -0.09879688 0.041610725
-0.06593536 0.09064447 0.06663431 -0.05362463 0.13121675 0.13003547 0.18441905 0.06757891
0.10578853 -0.0032575931 -0.12937532 0.098308735 -0.03672463 -0.053230144 -0.10234216 -0.07908562
-0.09821172 -0.06367497 0.15641607 0.080984965 -0.00654349 0.124540105 0.1908129 -0.022958444
-0.08812736 0.11722297 -0.11007589 -0.077981785 -0.09785548 -0.09244341 -0.08199995 0.01239886
-0.07906282 0.12831196 -0.15961355 -0.13119629 -0.16299853 -0.12513392 0.035390783 -0.15725322
-0.047474377 -0.090187065 -0.055380166 -0.068346865 0.117672496 -0.092216544 -0.12240432 0.08436542
0.17901243 0.14957786 -0.033496894 0.009915945 -0.08711604 -0.013806218 0.009245687 -0.113244995
-0.07877592 0.075173706 0.033953466 0.15368676 -0.061372746 -0.07325811 -0.15589643 -0.001603128
-0.12858422 -0.20801581 0.00736816 -0.106056675 -0.1068623 0.08367451 -0.16157424 0.009493479
0.065541424 0.11060296 -0.105385974 0.06932828 -0.15220432 -0.07293567 -0.06282157 -0.10737984
-0.02155103 0.15440735 -0.109724134 0.08309305 -0.0011364619 -0.15816349 -0.2044088 0.07905801
0.09769476 0.1139618 0.12990023 -0.16072129 -0.12190624 -0.07352919 -0.12041124 -0.096948475
0.017021894 -0.02455786 0.0911324 -0.10733219 0.1509331 0.0066268356 0.055505686 0.079789996
-0.0709622 0.16659756 0.059161585 -0.14988272 -0.06346489 -0.1437059 0.0167981 -0.13087921
-0.092707 -0.10226549 -0.21142736 0.14943367 -0.07429394 -0.07267166 -0.053951852 -0.05385872
-0.14877783 0.029345457 -0.15243603 -0.180935 -0.14179789 -0.18880378 0.103616074 -0.055369325
0.20812766 -0.08690813 -0.13777573 0.11632324 -0.08275561 -0.014052047 -0.054304007 -0.13152437
-0.090650015 -0.11116446 0.05456011 0.06666079 0.14709851 0.15345 0.08169682 -0.13238402
0.14894323 0.112960875 -0.020901958 0.00601084 0.0736304 -0.012215131 -0.05367283 0.023439623
-0.051953297 0.10545675 0.12796178 0.16868404 0.026415482 -0.17759092 0.20745404 0.005499579
0.07850803 -0.09397086 -0.006601196 0.057549667 -0.07189806 -0.10924891 0.06434944 0.11792855
0.09931129 0.060182013 -0.02053498 0.09238311 -0.03454857 0.09854855 0.058723364 -0.21757013
0.15023026 0.012114541 -0.14106087 -0.03814511 0.16652426 -0.13011687 0.051486723 -0.04685376
-0.18733251 0.051413506 0.1009528 0.1682538 -0.1478046 0.028659621 0.1224857 -0.12990238

net.8.bias f4 [18]
00000000: 7dac 4bbd 359f 1dbe c392 163d b871 b4bc
00000010: 0024 aabd 568d 23bd 5ef8 8bbd 4216 bfbc
00000020: 2bb2 0cbc e523 29be f44f 0bbe 996b 073e
00000030: 4272 48be bcd1 94bd 58d3 afbd 834a 2f3e
00000040: 3ad9 043e 524f 0e3e
-0.049725045 -0.15392764 0.036761057 -0.022026882 -0.08307648 -0.03992971 -0.06834482 -0.023326043
-0.0085874 -0.16517599 -0.13604718 0.13224639 -0.19574836 -0.07266566 -0.085852325 0.17118268
0.1297349 0.13897446
